digraph "graph" {
node [shape="record"]
"mobilenet_0.75_224/conv1_pad/Pad" [label="{Pad}"]
"mobilenet_0.75_224/conv1_relu/Relu6/in_tp" [label="{Transpose}"]
"mobilenet_0.75_224/conv1_relu/Relu6/weights_tp" [label="{Transpose}"]
"mobilenet_0.75_224/conv1_relu/Relu6/conv" [label="{Conv2D}"]
"mobilenet_0.75_224/conv1_relu/Relu6/out_tp" [label="{Transpose}"]
"" [label="{Transpose}"]
"mobilenet_0.75_224/conv_dw_1_relu/Relu6" [label="{Transpose}"]
"mobilenet_0.75_224/conv_dw_1_relu/Relu6" [label="{Conv2D}"]
"mobilenet_0.75_224/conv_dw_1_relu/Relu6" [label="{Transpose}"]
"mobilenet_0.75_224/conv_pw_1_relu/Relu6/in_tp" [label="{Transpose}"]
"mobilenet_0.75_224/conv_pw_1_relu/Relu6/weights_tp" [label="{Transpose}"]
"mobilenet_0.75_224/conv_pw_1_relu/Relu6/conv" [label="{Conv2D}"]
"mobilenet_0.75_224/conv_pw_1_relu/Relu6/out_tp" [label="{Transpose}"]
"mobilenet_0.75_224/conv_pad_2/Pad" [label="{Pad}"]
"" [label="{Transpose}"]
"mobilenet_0.75_224/conv_dw_2_relu/Relu6" [label="{Transpose}"]
"mobilenet_0.75_224/conv_dw_2_relu/Relu6" [label="{Conv2D}"]
"mobilenet_0.75_224/conv_dw_2_relu/Relu6" [label="{Transpose}"]
"mobilenet_0.75_224/conv_pw_2_relu/Relu6/in_tp" [label="{Transpose}"]
"mobilenet_0.75_224/conv_pw_2_relu/Relu6/weights_tp" [label="{Transpose}"]
"mobilenet_0.75_224/conv_pw_2_relu/Relu6/conv" [label="{Conv2D}"]
"mobilenet_0.75_224/conv_pw_2_relu/Relu6/out_tp" [label="{Transpose}"]
"" [label="{Transpose}"]
"mobilenet_0.75_224/conv_dw_3_relu/Relu6" [label="{Transpose}"]
"mobilenet_0.75_224/conv_dw_3_relu/Relu6" [label="{Conv2D}"]
"mobilenet_0.75_224/conv_dw_3_relu/Relu6" [label="{Transpose}"]
"mobilenet_0.75_224/conv_pw_3_relu/Relu6/in_tp" [label="{Transpose}"]
"mobilenet_0.75_224/conv_pw_3_relu/Relu6/weights_tp" [label="{Transpose}"]
"mobilenet_0.75_224/conv_pw_3_relu/Relu6/conv" [label="{Conv2D}"]
"mobilenet_0.75_224/conv_pw_3_relu/Relu6/out_tp" [label="{Transpose}"]
"mobilenet_0.75_224/conv_pad_4/Pad" [label="{Pad}"]
"" [label="{Transpose}"]
"mobilenet_0.75_224/conv_dw_4_relu/Relu6" [label="{Transpose}"]
"mobilenet_0.75_224/conv_dw_4_relu/Relu6" [label="{Conv2D}"]
"mobilenet_0.75_224/conv_dw_4_relu/Relu6" [label="{Transpose}"]
"mobilenet_0.75_224/conv_pw_4_relu/Relu6/in_tp" [label="{Transpose}"]
"mobilenet_0.75_224/conv_pw_4_relu/Relu6/weights_tp" [label="{Transpose}"]
"mobilenet_0.75_224/conv_pw_4_relu/Relu6/conv" [label="{Conv2D}"]
"mobilenet_0.75_224/conv_pw_4_relu/Relu6/out_tp" [label="{Transpose}"]
"" [label="{Transpose}"]
"mobilenet_0.75_224/conv_dw_5_relu/Relu6" [label="{Transpose}"]
"mobilenet_0.75_224/conv_dw_5_relu/Relu6" [label="{Conv2D}"]
"mobilenet_0.75_224/conv_dw_5_relu/Relu6" [label="{Transpose}"]
"mobilenet_0.75_224/conv_pw_5_relu/Relu6/in_tp" [label="{Transpose}"]
"mobilenet_0.75_224/conv_pw_5_relu/Relu6/weights_tp" [label="{Transpose}"]
"mobilenet_0.75_224/conv_pw_5_relu/Relu6/conv" [label="{Conv2D}"]
"mobilenet_0.75_224/conv_pw_5_relu/Relu6/out_tp" [label="{Transpose}"]
"mobilenet_0.75_224/conv_pad_6/Pad" [label="{Pad}"]
"" [label="{Transpose}"]
"mobilenet_0.75_224/conv_dw_6_relu/Relu6" [label="{Transpose}"]
"mobilenet_0.75_224/conv_dw_6_relu/Relu6" [label="{Conv2D}"]
"mobilenet_0.75_224/conv_dw_6_relu/Relu6" [label="{Transpose}"]
"mobilenet_0.75_224/conv_pw_6_relu/Relu6/in_tp" [label="{Transpose}"]
"mobilenet_0.75_224/conv_pw_6_relu/Relu6/weights_tp" [label="{Transpose}"]
"mobilenet_0.75_224/conv_pw_6_relu/Relu6/conv" [label="{Conv2D}"]
"mobilenet_0.75_224/conv_pw_6_relu/Relu6/out_tp" [label="{Transpose}"]
"" [label="{Transpose}"]
"mobilenet_0.75_224/conv_dw_7_relu/Relu6" [label="{Transpose}"]
"mobilenet_0.75_224/conv_dw_7_relu/Relu6" [label="{Conv2D}"]
"mobilenet_0.75_224/conv_dw_7_relu/Relu6" [label="{Transpose}"]
"mobilenet_0.75_224/conv_pw_7_relu/Relu6/in_tp" [label="{Transpose}"]
"mobilenet_0.75_224/conv_pw_7_relu/Relu6/weights_tp" [label="{Transpose}"]
"mobilenet_0.75_224/conv_pw_7_relu/Relu6/conv" [label="{Conv2D}"]
"mobilenet_0.75_224/conv_pw_7_relu/Relu6/out_tp" [label="{Transpose}"]
"" [label="{Transpose}"]
"mobilenet_0.75_224/conv_dw_8_relu/Relu6" [label="{Transpose}"]
"mobilenet_0.75_224/conv_dw_8_relu/Relu6" [label="{Conv2D}"]
"mobilenet_0.75_224/conv_dw_8_relu/Relu6" [label="{Transpose}"]
"mobilenet_0.75_224/conv_pw_8_relu/Relu6/in_tp" [label="{Transpose}"]
"mobilenet_0.75_224/conv_pw_8_relu/Relu6/weights_tp" [label="{Transpose}"]
"mobilenet_0.75_224/conv_pw_8_relu/Relu6/conv" [label="{Conv2D}"]
"mobilenet_0.75_224/conv_pw_8_relu/Relu6/out_tp" [label="{Transpose}"]
"" [label="{Transpose}"]
"mobilenet_0.75_224/conv_dw_9_relu/Relu6" [label="{Transpose}"]
"mobilenet_0.75_224/conv_dw_9_relu/Relu6" [label="{Conv2D}"]
"mobilenet_0.75_224/conv_dw_9_relu/Relu6" [label="{Transpose}"]
"mobilenet_0.75_224/conv_pw_9_relu/Relu6/in_tp" [label="{Transpose}"]
"mobilenet_0.75_224/conv_pw_9_relu/Relu6/weights_tp" [label="{Transpose}"]
"mobilenet_0.75_224/conv_pw_9_relu/Relu6/conv" [label="{Conv2D}"]
"mobilenet_0.75_224/conv_pw_9_relu/Relu6/out_tp" [label="{Transpose}"]
"" [label="{Transpose}"]
"mobilenet_0.75_224/conv_dw_10_relu/Relu6" [label="{Transpose}"]
"mobilenet_0.75_224/conv_dw_10_relu/Relu6" [label="{Conv2D}"]
"mobilenet_0.75_224/conv_dw_10_relu/Relu6" [label="{Transpose}"]
"mobilenet_0.75_224/conv_pw_10_relu/Relu6/in_tp" [label="{Transpose}"]
"mobilenet_0.75_224/conv_pw_10_relu/Relu6/weights_tp" [label="{Transpose}"]
"mobilenet_0.75_224/conv_pw_10_relu/Relu6/conv" [label="{Conv2D}"]
"mobilenet_0.75_224/conv_pw_10_relu/Relu6/out_tp" [label="{Transpose}"]
"" [label="{Transpose}"]
"mobilenet_0.75_224/conv_dw_11_relu/Relu6" [label="{Transpose}"]
"mobilenet_0.75_224/conv_dw_11_relu/Relu6" [label="{Conv2D}"]
"mobilenet_0.75_224/conv_dw_11_relu/Relu6" [label="{Transpose}"]
"mobilenet_0.75_224/conv_pw_11_relu/Relu6/in_tp" [label="{Transpose}"]
"mobilenet_0.75_224/conv_pw_11_relu/Relu6/weights_tp" [label="{Transpose}"]
"mobilenet_0.75_224/conv_pw_11_relu/Relu6/conv" [label="{Conv2D}"]
"mobilenet_0.75_224/conv_pw_11_relu/Relu6/out_tp" [label="{Transpose}"]
"mobilenet_0.75_224/conv_pad_12/Pad" [label="{Pad}"]
"" [label="{Transpose}"]
"mobilenet_0.75_224/conv_dw_12_relu/Relu6" [label="{Transpose}"]
"mobilenet_0.75_224/conv_dw_12_relu/Relu6" [label="{Conv2D}"]
"mobilenet_0.75_224/conv_dw_12_relu/Relu6" [label="{Transpose}"]
"mobilenet_0.75_224/conv_pw_12_relu/Relu6/in_tp" [label="{Transpose}"]
"mobilenet_0.75_224/conv_pw_12_relu/Relu6/weights_tp" [label="{Transpose}"]
"mobilenet_0.75_224/conv_pw_12_relu/Relu6/conv" [label="{Conv2D}"]
"mobilenet_0.75_224/conv_pw_12_relu/Relu6/out_tp" [label="{Transpose}"]
"" [label="{Transpose}"]
"mobilenet_0.75_224/conv_dw_13_relu/Relu6" [label="{Transpose}"]
"mobilenet_0.75_224/conv_dw_13_relu/Relu6" [label="{Conv2D}"]
"mobilenet_0.75_224/conv_dw_13_relu/Relu6" [label="{Transpose}"]
"mobilenet_0.75_224/conv_pw_13_relu/Relu6/in_tp" [label="{Transpose}"]
"mobilenet_0.75_224/conv_pw_13_relu/Relu6/weights_tp" [label="{Transpose}"]
"mobilenet_0.75_224/conv_pw_13_relu/Relu6/conv" [label="{Conv2D}"]
"mobilenet_0.75_224/conv_pw_13_relu/Relu6/out_tp" [label="{Transpose}"]
"detection_layer_30/BiasAdd/in_tp" [label="{Transpose}"]
"detection_layer_30/BiasAdd/weights_tp" [label="{Transpose}"]
"detection_layer_30/BiasAdd/conv" [label="{Conv2D}"]
"detection_layer_30/BiasAdd/out_tp" [label="{Transpose}"]
"input_1" [label="{Input}"]
"detection_layer_30/BiasAdd" [label="{Output}"]
"mobilenet_0.75_224/conv1_pad/Pad"->"mobilenet_0.75_224/conv1_relu/Relu6/in_tp" [label="f32[1,226,322,3]"]
"mobilenet_0.75_224/conv1_relu/Relu6/in_tp"->"mobilenet_0.75_224/conv1_relu/Relu6/conv" [label="f32[1,3,226,322]"]
"mobilenet_0.75_224/conv1_relu/Relu6/weights_tp"->"mobilenet_0.75_224/conv1_relu/Relu6/conv" [label="f32[24,3,3,3]"]
"mobilenet_0.75_224/conv1_relu/Relu6/conv"->"mobilenet_0.75_224/conv1_relu/Relu6/out_tp" [label="f32[1,24,112,160]"]
"mobilenet_0.75_224/conv1_relu/Relu6/out_tp"->"" [label="f32[1,112,160,24]"]
""->"mobilenet_0.75_224/conv_dw_1_relu/Relu6" [label="f32[1,24,112,160]"]
"mobilenet_0.75_224/conv_dw_1_relu/Relu6"->"mobilenet_0.75_224/conv_dw_1_relu/Relu6" [label="f32[24,1,3,3]"]
"mobilenet_0.75_224/conv_dw_1_relu/Relu6"->"mobilenet_0.75_224/conv_dw_1_relu/Relu6" [label="f32[1,24,112,160]"]
"mobilenet_0.75_224/conv_dw_1_relu/Relu6"->"mobilenet_0.75_224/conv_pw_1_relu/Relu6/in_tp" [label="f32[1,112,160,24]"]
"mobilenet_0.75_224/conv_pw_1_relu/Relu6/in_tp"->"mobilenet_0.75_224/conv_pw_1_relu/Relu6/conv" [label="f32[1,24,112,160]"]
"mobilenet_0.75_224/conv_pw_1_relu/Relu6/weights_tp"->"mobilenet_0.75_224/conv_pw_1_relu/Relu6/conv" [label="f32[48,24,1,1]"]
"mobilenet_0.75_224/conv_pw_1_relu/Relu6/conv"->"mobilenet_0.75_224/conv_pw_1_relu/Relu6/out_tp" [label="f32[1,48,112,160]"]
"mobilenet_0.75_224/conv_pw_1_relu/Relu6/out_tp"->"mobilenet_0.75_224/conv_pad_2/Pad" [label="f32[1,112,160,48]"]
"mobilenet_0.75_224/conv_pad_2/Pad"->"" [label="f32[1,114,162,48]"]
""->"mobilenet_0.75_224/conv_dw_2_relu/Relu6" [label="f32[1,48,114,162]"]
"mobilenet_0.75_224/conv_dw_2_relu/Relu6"->"mobilenet_0.75_224/conv_dw_2_relu/Relu6" [label="f32[48,1,3,3]"]
"mobilenet_0.75_224/conv_dw_2_relu/Relu6"->"mobilenet_0.75_224/conv_dw_2_relu/Relu6" [label="f32[1,48,56,80]"]
"mobilenet_0.75_224/conv_dw_2_relu/Relu6"->"mobilenet_0.75_224/conv_pw_2_relu/Relu6/in_tp" [label="f32[1,56,80,48]"]
"mobilenet_0.75_224/conv_pw_2_relu/Relu6/in_tp"->"mobilenet_0.75_224/conv_pw_2_relu/Relu6/conv" [label="f32[1,48,56,80]"]
"mobilenet_0.75_224/conv_pw_2_relu/Relu6/weights_tp"->"mobilenet_0.75_224/conv_pw_2_relu/Relu6/conv" [label="f32[96,48,1,1]"]
"mobilenet_0.75_224/conv_pw_2_relu/Relu6/conv"->"mobilenet_0.75_224/conv_pw_2_relu/Relu6/out_tp" [label="f32[1,96,56,80]"]
"mobilenet_0.75_224/conv_pw_2_relu/Relu6/out_tp"->"" [label="f32[1,56,80,96]"]
""->"mobilenet_0.75_224/conv_dw_3_relu/Relu6" [label="f32[1,96,56,80]"]
"mobilenet_0.75_224/conv_dw_3_relu/Relu6"->"mobilenet_0.75_224/conv_dw_3_relu/Relu6" [label="f32[96,1,3,3]"]
"mobilenet_0.75_224/conv_dw_3_relu/Relu6"->"mobilenet_0.75_224/conv_dw_3_relu/Relu6" [label="f32[1,96,56,80]"]
"mobilenet_0.75_224/conv_dw_3_relu/Relu6"->"mobilenet_0.75_224/conv_pw_3_relu/Relu6/in_tp" [label="f32[1,56,80,96]"]
"mobilenet_0.75_224/conv_pw_3_relu/Relu6/in_tp"->"mobilenet_0.75_224/conv_pw_3_relu/Relu6/conv" [label="f32[1,96,56,80]"]
"mobilenet_0.75_224/conv_pw_3_relu/Relu6/weights_tp"->"mobilenet_0.75_224/conv_pw_3_relu/Relu6/conv" [label="f32[96,96,1,1]"]
"mobilenet_0.75_224/conv_pw_3_relu/Relu6/conv"->"mobilenet_0.75_224/conv_pw_3_relu/Relu6/out_tp" [label="f32[1,96,56,80]"]
"mobilenet_0.75_224/conv_pw_3_relu/Relu6/out_tp"->"mobilenet_0.75_224/conv_pad_4/Pad" [label="f32[1,56,80,96]"]
"mobilenet_0.75_224/conv_pad_4/Pad"->"" [label="f32[1,58,82,96]"]
""->"mobilenet_0.75_224/conv_dw_4_relu/Relu6" [label="f32[1,96,58,82]"]
"mobilenet_0.75_224/conv_dw_4_relu/Relu6"->"mobilenet_0.75_224/conv_dw_4_relu/Relu6" [label="f32[96,1,3,3]"]
"mobilenet_0.75_224/conv_dw_4_relu/Relu6"->"mobilenet_0.75_224/conv_dw_4_relu/Relu6" [label="f32[1,96,28,40]"]
"mobilenet_0.75_224/conv_dw_4_relu/Relu6"->"mobilenet_0.75_224/conv_pw_4_relu/Relu6/in_tp" [label="f32[1,28,40,96]"]
"mobilenet_0.75_224/conv_pw_4_relu/Relu6/in_tp"->"mobilenet_0.75_224/conv_pw_4_relu/Relu6/conv" [label="f32[1,96,28,40]"]
"mobilenet_0.75_224/conv_pw_4_relu/Relu6/weights_tp"->"mobilenet_0.75_224/conv_pw_4_relu/Relu6/conv" [label="f32[192,96,1,1]"]
"mobilenet_0.75_224/conv_pw_4_relu/Relu6/conv"->"mobilenet_0.75_224/conv_pw_4_relu/Relu6/out_tp" [label="f32[1,192,28,40]"]
"mobilenet_0.75_224/conv_pw_4_relu/Relu6/out_tp"->"" [label="f32[1,28,40,192]"]
""->"mobilenet_0.75_224/conv_dw_5_relu/Relu6" [label="f32[1,192,28,40]"]
"mobilenet_0.75_224/conv_dw_5_relu/Relu6"->"mobilenet_0.75_224/conv_dw_5_relu/Relu6" [label="f32[192,1,3,3]"]
"mobilenet_0.75_224/conv_dw_5_relu/Relu6"->"mobilenet_0.75_224/conv_dw_5_relu/Relu6" [label="f32[1,192,28,40]"]
"mobilenet_0.75_224/conv_dw_5_relu/Relu6"->"mobilenet_0.75_224/conv_pw_5_relu/Relu6/in_tp" [label="f32[1,28,40,192]"]
"mobilenet_0.75_224/conv_pw_5_relu/Relu6/in_tp"->"mobilenet_0.75_224/conv_pw_5_relu/Relu6/conv" [label="f32[1,192,28,40]"]
"mobilenet_0.75_224/conv_pw_5_relu/Relu6/weights_tp"->"mobilenet_0.75_224/conv_pw_5_relu/Relu6/conv" [label="f32[192,192,1,1]"]
"mobilenet_0.75_224/conv_pw_5_relu/Relu6/conv"->"mobilenet_0.75_224/conv_pw_5_relu/Relu6/out_tp" [label="f32[1,192,28,40]"]
"mobilenet_0.75_224/conv_pw_5_relu/Relu6/out_tp"->"mobilenet_0.75_224/conv_pad_6/Pad" [label="f32[1,28,40,192]"]
"mobilenet_0.75_224/conv_pad_6/Pad"->"" [label="f32[1,30,42,192]"]
""->"mobilenet_0.75_224/conv_dw_6_relu/Relu6" [label="f32[1,192,30,42]"]
"mobilenet_0.75_224/conv_dw_6_relu/Relu6"->"mobilenet_0.75_224/conv_dw_6_relu/Relu6" [label="f32[192,1,3,3]"]
"mobilenet_0.75_224/conv_dw_6_relu/Relu6"->"mobilenet_0.75_224/conv_dw_6_relu/Relu6" [label="f32[1,192,14,20]"]
"mobilenet_0.75_224/conv_dw_6_relu/Relu6"->"mobilenet_0.75_224/conv_pw_6_relu/Relu6/in_tp" [label="f32[1,14,20,192]"]
"mobilenet_0.75_224/conv_pw_6_relu/Relu6/in_tp"->"mobilenet_0.75_224/conv_pw_6_relu/Relu6/conv" [label="f32[1,192,14,20]"]
"mobilenet_0.75_224/conv_pw_6_relu/Relu6/weights_tp"->"mobilenet_0.75_224/conv_pw_6_relu/Relu6/conv" [label="f32[384,192,1,1]"]
"mobilenet_0.75_224/conv_pw_6_relu/Relu6/conv"->"mobilenet_0.75_224/conv_pw_6_relu/Relu6/out_tp" [label="f32[1,384,14,20]"]
"mobilenet_0.75_224/conv_pw_6_relu/Relu6/out_tp"->"" [label="f32[1,14,20,384]"]
""->"mobilenet_0.75_224/conv_dw_7_relu/Relu6" [label="f32[1,384,14,20]"]
"mobilenet_0.75_224/conv_dw_7_relu/Relu6"->"mobilenet_0.75_224/conv_dw_7_relu/Relu6" [label="f32[384,1,3,3]"]
"mobilenet_0.75_224/conv_dw_7_relu/Relu6"->"mobilenet_0.75_224/conv_dw_7_relu/Relu6" [label="f32[1,384,14,20]"]
"mobilenet_0.75_224/conv_dw_7_relu/Relu6"->"mobilenet_0.75_224/conv_pw_7_relu/Relu6/in_tp" [label="f32[1,14,20,384]"]
"mobilenet_0.75_224/conv_pw_7_relu/Relu6/in_tp"->"mobilenet_0.75_224/conv_pw_7_relu/Relu6/conv" [label="f32[1,384,14,20]"]
"mobilenet_0.75_224/conv_pw_7_relu/Relu6/weights_tp"->"mobilenet_0.75_224/conv_pw_7_relu/Relu6/conv" [label="f32[384,384,1,1]"]
"mobilenet_0.75_224/conv_pw_7_relu/Relu6/conv"->"mobilenet_0.75_224/conv_pw_7_relu/Relu6/out_tp" [label="f32[1,384,14,20]"]
"mobilenet_0.75_224/conv_pw_7_relu/Relu6/out_tp"->"" [label="f32[1,14,20,384]"]
""->"mobilenet_0.75_224/conv_dw_8_relu/Relu6" [label="f32[1,384,14,20]"]
"mobilenet_0.75_224/conv_dw_8_relu/Relu6"->"mobilenet_0.75_224/conv_dw_8_relu/Relu6" [label="f32[384,1,3,3]"]
"mobilenet_0.75_224/conv_dw_8_relu/Relu6"->"mobilenet_0.75_224/conv_dw_8_relu/Relu6" [label="f32[1,384,14,20]"]
"mobilenet_0.75_224/conv_dw_8_relu/Relu6"->"mobilenet_0.75_224/conv_pw_8_relu/Relu6/in_tp" [label="f32[1,14,20,384]"]
"mobilenet_0.75_224/conv_pw_8_relu/Relu6/in_tp"->"mobilenet_0.75_224/conv_pw_8_relu/Relu6/conv" [label="f32[1,384,14,20]"]
"mobilenet_0.75_224/conv_pw_8_relu/Relu6/weights_tp"->"mobilenet_0.75_224/conv_pw_8_relu/Relu6/conv" [label="f32[384,384,1,1]"]
"mobilenet_0.75_224/conv_pw_8_relu/Relu6/conv"->"mobilenet_0.75_224/conv_pw_8_relu/Relu6/out_tp" [label="f32[1,384,14,20]"]
"mobilenet_0.75_224/conv_pw_8_relu/Relu6/out_tp"->"" [label="f32[1,14,20,384]"]
""->"mobilenet_0.75_224/conv_dw_9_relu/Relu6" [label="f32[1,384,14,20]"]
"mobilenet_0.75_224/conv_dw_9_relu/Relu6"->"mobilenet_0.75_224/conv_dw_9_relu/Relu6" [label="f32[384,1,3,3]"]
"mobilenet_0.75_224/conv_dw_9_relu/Relu6"->"mobilenet_0.75_224/conv_dw_9_relu/Relu6" [label="f32[1,384,14,20]"]
"mobilenet_0.75_224/conv_dw_9_relu/Relu6"->"mobilenet_0.75_224/conv_pw_9_relu/Relu6/in_tp" [label="f32[1,14,20,384]"]
"mobilenet_0.75_224/conv_pw_9_relu/Relu6/in_tp"->"mobilenet_0.75_224/conv_pw_9_relu/Relu6/conv" [label="f32[1,384,14,20]"]
"mobilenet_0.75_224/conv_pw_9_relu/Relu6/weights_tp"->"mobilenet_0.75_224/conv_pw_9_relu/Relu6/conv" [label="f32[384,384,1,1]"]
"mobilenet_0.75_224/conv_pw_9_relu/Relu6/conv"->"mobilenet_0.75_224/conv_pw_9_relu/Relu6/out_tp" [label="f32[1,384,14,20]"]
"mobilenet_0.75_224/conv_pw_9_relu/Relu6/out_tp"->"" [label="f32[1,14,20,384]"]
""->"mobilenet_0.75_224/conv_dw_10_relu/Relu6" [label="f32[1,384,14,20]"]
"mobilenet_0.75_224/conv_dw_10_relu/Relu6"->"mobilenet_0.75_224/conv_dw_10_relu/Relu6" [label="f32[384,1,3,3]"]
"mobilenet_0.75_224/conv_dw_10_relu/Relu6"->"mobilenet_0.75_224/conv_dw_10_relu/Relu6" [label="f32[1,384,14,20]"]
"mobilenet_0.75_224/conv_dw_10_relu/Relu6"->"mobilenet_0.75_224/conv_pw_10_relu/Relu6/in_tp" [label="f32[1,14,20,384]"]
"mobilenet_0.75_224/conv_pw_10_relu/Relu6/in_tp"->"mobilenet_0.75_224/conv_pw_10_relu/Relu6/conv" [label="f32[1,384,14,20]"]
"mobilenet_0.75_224/conv_pw_10_relu/Relu6/weights_tp"->"mobilenet_0.75_224/conv_pw_10_relu/Relu6/conv" [label="f32[384,384,1,1]"]
"mobilenet_0.75_224/conv_pw_10_relu/Relu6/conv"->"mobilenet_0.75_224/conv_pw_10_relu/Relu6/out_tp" [label="f32[1,384,14,20]"]
"mobilenet_0.75_224/conv_pw_10_relu/Relu6/out_tp"->"" [label="f32[1,14,20,384]"]
""->"mobilenet_0.75_224/conv_dw_11_relu/Relu6" [label="f32[1,384,14,20]"]
"mobilenet_0.75_224/conv_dw_11_relu/Relu6"->"mobilenet_0.75_224/conv_dw_11_relu/Relu6" [label="f32[384,1,3,3]"]
"mobilenet_0.75_224/conv_dw_11_relu/Relu6"->"mobilenet_0.75_224/conv_dw_11_relu/Relu6" [label="f32[1,384,14,20]"]
"mobilenet_0.75_224/conv_dw_11_relu/Relu6"->"mobilenet_0.75_224/conv_pw_11_relu/Relu6/in_tp" [label="f32[1,14,20,384]"]
"mobilenet_0.75_224/conv_pw_11_relu/Relu6/in_tp"->"mobilenet_0.75_224/conv_pw_11_relu/Relu6/conv" [label="f32[1,384,14,20]"]
"mobilenet_0.75_224/conv_pw_11_relu/Relu6/weights_tp"->"mobilenet_0.75_224/conv_pw_11_relu/Relu6/conv" [label="f32[384,384,1,1]"]
"mobilenet_0.75_224/conv_pw_11_relu/Relu6/conv"->"mobilenet_0.75_224/conv_pw_11_relu/Relu6/out_tp" [label="f32[1,384,14,20]"]
"mobilenet_0.75_224/conv_pw_11_relu/Relu6/out_tp"->"mobilenet_0.75_224/conv_pad_12/Pad" [label="f32[1,14,20,384]"]
"mobilenet_0.75_224/conv_pad_12/Pad"->"" [label="f32[1,16,22,384]"]
""->"mobilenet_0.75_224/conv_dw_12_relu/Relu6" [label="f32[1,384,16,22]"]
"mobilenet_0.75_224/conv_dw_12_relu/Relu6"->"mobilenet_0.75_224/conv_dw_12_relu/Relu6" [label="f32[384,1,3,3]"]
"mobilenet_0.75_224/conv_dw_12_relu/Relu6"->"mobilenet_0.75_224/conv_dw_12_relu/Relu6" [label="f32[1,384,7,10]"]
"mobilenet_0.75_224/conv_dw_12_relu/Relu6"->"mobilenet_0.75_224/conv_pw_12_relu/Relu6/in_tp" [label="f32[1,7,10,384]"]
"mobilenet_0.75_224/conv_pw_12_relu/Relu6/in_tp"->"mobilenet_0.75_224/conv_pw_12_relu/Relu6/conv" [label="f32[1,384,7,10]"]
"mobilenet_0.75_224/conv_pw_12_relu/Relu6/weights_tp"->"mobilenet_0.75_224/conv_pw_12_relu/Relu6/conv" [label="f32[768,384,1,1]"]
"mobilenet_0.75_224/conv_pw_12_relu/Relu6/conv"->"mobilenet_0.75_224/conv_pw_12_relu/Relu6/out_tp" [label="f32[1,768,7,10]"]
"mobilenet_0.75_224/conv_pw_12_relu/Relu6/out_tp"->"" [label="f32[1,7,10,768]"]
""->"mobilenet_0.75_224/conv_dw_13_relu/Relu6" [label="f32[1,768,7,10]"]
"mobilenet_0.75_224/conv_dw_13_relu/Relu6"->"mobilenet_0.75_224/conv_dw_13_relu/Relu6" [label="f32[768,1,3,3]"]
"mobilenet_0.75_224/conv_dw_13_relu/Relu6"->"mobilenet_0.75_224/conv_dw_13_relu/Relu6" [label="f32[1,768,7,10]"]
"mobilenet_0.75_224/conv_dw_13_relu/Relu6"->"mobilenet_0.75_224/conv_pw_13_relu/Relu6/in_tp" [label="f32[1,7,10,768]"]
"mobilenet_0.75_224/conv_pw_13_relu/Relu6/in_tp"->"mobilenet_0.75_224/conv_pw_13_relu/Relu6/conv" [label="f32[1,768,7,10]"]
"mobilenet_0.75_224/conv_pw_13_relu/Relu6/weights_tp"->"mobilenet_0.75_224/conv_pw_13_relu/Relu6/conv" [label="f32[768,768,1,1]"]
"mobilenet_0.75_224/conv_pw_13_relu/Relu6/conv"->"mobilenet_0.75_224/conv_pw_13_relu/Relu6/out_tp" [label="f32[1,768,7,10]"]
"mobilenet_0.75_224/conv_pw_13_relu/Relu6/out_tp"->"detection_layer_30/BiasAdd/in_tp" [label="f32[1,7,10,768]"]
"detection_layer_30/BiasAdd/in_tp"->"detection_layer_30/BiasAdd/conv" [label="f32[1,768,7,10]"]
"detection_layer_30/BiasAdd/weights_tp"->"detection_layer_30/BiasAdd/conv" [label="f32[30,768,1,1]"]
"detection_layer_30/BiasAdd/conv"->"detection_layer_30/BiasAdd/out_tp" [label="f32[1,30,7,10]"]
"detection_layer_30/BiasAdd/out_tp"->"detection_layer_30/BiasAdd" [label="f32[1,7,10,30]"]
"input_1"->"mobilenet_0.75_224/conv1_pad/Pad" [label="f32[1,224,320,3]"]
}
